…
 for file in os.listdir(source_directory): if file.endswith(image_extension): with open(source_directory + file,""r+b"") as f: img = mpimg.imread(f) img = img.flatten() image_matrix.append(img) del img count += 1 #print (""File "" + str(count) + "" / "" + str(nb_files) + "" loaded."") return np.asarray(image_matrix) So I run the above code and recieve: Audio files are already processed. Skipping... Loading images into memory... X_train shape: (2394L, 784L) 2394 train samples 1027 test samples -------------------------------------------------------------------------------- Initial input shape: (None, 784) -------------------------------------------------------------------------------- Layer (name) Output Shape Param # -------------------------------------------------------------------------------- Dense (dense) (None, 100) 78500 Dense (dense) (None, 200) 20200 Dense (dense) (None, 200) 40200 Dense (dense) (None, 2) 402 -------------------------------------------------------------------------------- Total params: 139302 -------------------------------------------------------------------------------- None Train on 2394 samples, validate on 1027 samples Epoch 1/10 2394/2394 [==============================] - 0s - loss: 0.6898 - acc: 0.5455 - val_loss: 0.6835 - val_acc: 0.5716 Epoch 2/10 2394/2394 [================
…
|machine-learning|neural-network|keras|,tensor,1
43152053,"Appending layers with previous in keras? - Conv2D' object has no attribute 'is_placeholder'. I seem to have some problem appending layers in keras. Example: import keras from keras.layers.merge import Concatenate from keras.models import Model from keras.layers import Input, Dense from keras.layers import Dropout from keras.layers.core import Dense, Activation, Lambda, Reshape,Flatten from keras.layers import Conv2D, MaxPooling2D, Reshape, ZeroPadding2D input_img = Input(shape=(3, 6, 3)) conv2d_1_1 = Conv2D(filters = 32, kernel_size = (3,3) , padding = ""same"" , activation = 'relu' , name = ""conv2d_1_1"" )(input_img) conv2d_2_1 = Conv2D(filters = 64, kernel_size = (3,3) , padding = ""same"" , activation = 'relu' )(conv2d_1_1) conv2d_3_1 = Conv2D(filters = 64, kernel_size = (3,3) , padding = ""same"" , activation = 'relu' )(conv2d_2_1) conv2d_4_1 = Conv2D(filters = 32, kernel_size = (1,1) , padding = ""same"" , activation = 'relu' )(conv2d_3_1) conv2d_4_1_flatten = Flatten()(conv2d_4_1) conv2d_1_2 = Conv2D(filters = 32, kernel_size = (3,3) , padding = ""same"" , activation = 'relu' , name = ""conv2d_1_2"")(input_img) conv2d_2_2 = Conv2D(filters = 64, kernel_size = (3,3) , padding = ""same"" , activation = 'relu' )(conv2d_1_2) conv2d_3_2 = Conv2D(filters = 64, kernel_size = (3,3) , padding = ""same"" , activation = 'relu' )(conv2d_2_2) conv2d_4_2 = Conv2D(filters = 32, kernel_size = (1,1) , padding = ""same"" , activation = 'relu' )(conv2d_3_2) conv2d_4_2_flatten = Flatten()(conv2d_4_2) merge = keras.layers.concatenate([conv2d_4_1_flatten, conv2d_4_2_flatten]) dense1 = Dense(100, activation = 'relu')(merge) dense2 = Dense(50,activation = 'relu')(dense1) dense3 = Dense(1 ,activation = 'softmax')(dense2) model = Model(inputs = [conv2d_1_1 , conv2d_1_2] , outputs = dense3) model.compile(loss=""crossentropy"", optimizer=""adam"") print model.summary() Why am I not able to append my layers like this? The input is an image which i've manually separated in to shaped of (3,6,3)..",|python-2.7|keras|keras-layer|,model,0
…
"", data_format=""channels_last"",input_shape= (8,125,1))) model.add(MaxPooling2D(pool_size=(2, 2), strides=(2, 2), padding='same')) model.add(Convolution2D(64, (5, 5),padding=""same"", activation='relu')) model.add(MaxPooling2D(pool_size=(2, 2),padding='same')) model.add(Flatten()) model.add(Dense(5, activation='softmax')) model.compile(loss='mse', optimizer='adam', metrics=['accuracy']) print(model.summary()) _________________________________________________________________ Layer (type) Output Shape Param # ================================================================= conv2d_73 (Conv2D) (None, 8, 125, 64) 1664 _________________________________________________________________ max_pooling2d_23 (MaxPooling (None, 4, 63, 64) 0 _________________________________________________________________ conv2d_74 (Conv2D) (None, 4, 63, 64) 102464 _________________________________________________________________ max_pooling2d_24 (MaxPooling (None, 2, 32, 64) 0 _________________________________________________________________ flatten_5 (Flatten) (None, 4096) 0 _________________________________________________________________ dense_45 (Dense) (None, 5) 20485 ================================================================= Total params: 124,613 Trainable params: 124,613 Non-trainable params: 0 _________________________________________________________________ None x_train= tf.reshape(x_train,[1,125,1,8]) model.fit(x_train, y_train, epochs=150, batch_size= 125) score = model.evaluate(x_test, y_test, batch_size=125, verbose=0) print('Test loss:', score[
…
) out = Dense(units=2, activation='softmax')(reshape_layer_2) return Model(inputs=[input_layer], outputs=[out]) The model is optimized using Adam (with default parameters) and with the binary_crossentropy loss: clf_model = create_model() clf_model.compile(optimizer=Adam(), loss='categorical_crossentropy', metrics=['accuracy', 'categorical_crossentropy']) The output of clf_model.summary() is: Model: ""model"" _________________________________________________________________ Layer (type) Output Shape Param # ================================================================= input_1 (InputLayer) [(None, 6, 16, 16, 16, 3) 0 _________________________________________________________________ lambda (Lambda) (None, 16, 16, 16, 3) 0 _________________________________________________________________ conv3d (Conv3D) (None, 8, 8, 8, 64) 98368 _________________________________________________________________ re_lu (ReLU) (None, 8, 8, 8, 64) 0 _________________________________________________________________ global_average_pooling3d (Gl (None, 64) 0 _________________________________________________________________ lambda_1 (Lambda) (None, 384) 0 _________________________________________________________________ lambda_2 (Lambda) (None, 1, 384) 0 _________________________________________________________________ conv1d (Conv1D) (None, 1, 1) 385 _________________________________________________________________ re_lu_1 (ReLU) (None, 1, 1) 0 _________________________________________________________________ lambda_3 (Lambda) (None, 1) 0 _________________________________________________________________ dense (Dense) (None, 2) 4 ================================================================= Total params: 98,757 Trainable params: 98,757 Non-trainable params: 0 Training The model is trained for 500 epochs as follows: train_ds = make_tfdataset(for_training=True) history = clf_model.fit(train_ds, epochs=500, steps_per_epoch=ceil(240 / BATCH_SIZE), verbose=1) The problem! During the 500 epochs, the model loss stays around 
…
 Inputs and outputs are normalized, since the parameters have different units. The training phase results in a mse of ~ 0.48 and the predictions are rather sensible. This is the model: model = Sequential() model.add(Dense(78, activation='relu', input_shape = 3)) model.add(Dense(54, activation='relu')) model.add(Dense(54, activation='relu')) model.add(Dense(5)) summary: X: (2011, 3) y: (2011, 5) Model: ""sequential"" _________________________________________________________________ Layer (type) Output Shape Param # ================================================================= dense (Dense) (None, 78) 312 _________________________________________________________________ dense_1 (Dense) (None, 54) 4266 _________________________________________________________________ dense_2 (Dense) (None, 54) 2970 _________________________________________________________________ dense_3 (Dense) (None, 5) 275 ================================================================= Total params: 7,823 Trainable params: 7,823 Non-trainable params: 0 Then I make exactly the same model functional-style inputs = keras.layers.Input(shape=3) #(X.shape[1],) out = keras.layers.Dense(78, activation='relu')(inputs) out = keras.layers.Dense(54, activation='relu')(out) out = keras.layers.Dense(54, activation='relu')(out) out = keras.layers.Dense(5, activation='relu')(out) X: (2011, 3) y: (2011, 5) Model: ""func_model"" _________________________________________________________________ Layer (type) Output Shape Param # ================================================================= input_1 (InputLayer) [(None, 3)] 0 _________________________________________________________________ dense (Dense) (None, 78) 312 _________________________________________________________________ dense_1 (Dense) (None, 54) 4266 _________________________________________________________________ dense_2 (Dense) (None, 54) 2970 _________________________________________________________________ dense_3 (Dense) (None, 5) 275 ================================================================= Total params: 7,823 Trainable params: 7,823 Non-trainable params: 0 The summary is exactly the same, except that the functional has the input layer added.. but the docs say: When a popular kwarg input_shape is passed, then keras will create an input layer to insert before the current layer. This can be treated equivalent to explici
…
ion='relu')(x) x = keras.layers.MaxPool2D(pool_size=(2,2))(x) x = keras.layers.Dropout(0.25)(x) x = keras.layers.Dense(50, activation='relu')(x) x = keras.layers.Dropout(0.4)(x) outputs = keras.layers.Dense(2, activation='softmax')(x) model = keras.Model(inputs, outputs) model summary : Model: ""model_1"" _________________________________________________________________ Layer (type) Output Shape Param # ================================================================= input_2 (InputLayer) [(None, 64, 64, 1)] 0 _________________________________________________________________ conv2d_2 (Conv2D) (None, 64, 64, 12) 984 _________________________________________________________________ conv2d_3 (Conv2D) (None, 64, 64, 18) 10602 _________________________________________________________________ max_pooling2d_1 (MaxPooling2 (None, 32, 32, 18) 0 _________________________________________________________________ dropout_2 (Dropout) (None, 32, 32, 18) 0 _________________________________________________________________ dense_2 (Dense) (None, 32, 32, 50) 950 _________________________________________________________________ dropout_3 (Dropout) (None, 32, 32, 50) 0 _________________________________________________________________ dense_3 (Dense) (None, 32, 32, 2) 102 ================================================================= Total params: 12,638 Trainable params: 12,638 Non-trainable params: 0 ________________________ compiler and fitter which error occurs when I wanna fit the model model.compile( loss=keras.losses.SparseCategoricalCrossentropy(), optimizer=keras.optimizers.Adam(0.01), metrics=[""acc""], ) model.fit(x_train, y_train, batch_size=32, epo
…
